model/keypoint_classifier/keypoint_classifier.tflite (tflite, 25176 bytes, 8 tensors)

sequential_1/dense_7/MatMul f4 [26, 32]
-4.3145185 -1.5956248 2.6961155 -3.947885 2.527571 -0.18699674 -0.2922579 -0.653974
0.19753805 2.9990764 0.18927713 0.7294266 -1.9785248 0.745713 -1.0608624 -2.142763
0.20719323 -0.86070377 -0.1127717 -6.695672 0.6945082 0.473015 -2.749544 -0.7018994
-1.3998896 -1.5484936 -2.2308328 0.14589293 -0.45135796 0.20711818 0.47112957 0.56098473
-3.4344118 -0.6286577 3.4643383 4.4935174 -3.0482936 0.40387052 -0.68253946 0.7015891
-1.9497522 -2.9595797 0.5935373 0.32501706 0.85409665 -1.3330985 0.71846676 -8.278144
0.21903482 -0.12052333 0.6344034 1.5619848 -2.3273084 -1.0985628 -0.20382662 -1.5919626
-1.3895445 1.0487539 -0.50683063 1.531554 -3.3940616 1.1009159 1.9624308 -0.33401898
-1.4633183 0.2722294 -4.3008585 -0.48186594 -2.3053353 0.055439457 0.48554593 2.1791215
-4.427932 -0.70435077 3.2659335 -5.8886547 -0.67258555 -1.9856071 -0.2427653 -4.9462123
-3.1135397 0.89310956 -0.74021596 0.59663 -3.0769563 0.40345135 0.4903329 0.19641471
0.7909116 1.608888 0.1381684 0.14986224 -3.283603 -1.4294442 1.8127733 -0.7805068
1.6460084 0.7677067 -0.5712871 1.2090458 -1.8247155 -0.45327693 0.010042154 0.16031972
0.4184726 -2.924718 0.46727365 -0.0202024 -4.7862554 -1.114498 1.8621284 -0.24702474
0.20187286 -0.3544172 -1.9476709 0.72852945 -4.7592444 0.34840846 1.3882505 -0.35351756
0.6921879 0.039407488 1.1134914 -2.1615686 0.117224805 0.21925694 -0.38330373 -1.7910304
-3.6799076 -0.7050962 1.2447077 -5.6436687 -3.2950056 0.30346057 -2.452396 0.24798457
-0.49009615 -2.5140681 1.4513592 1.3141416 0.6824607 0.28167778 1.2037977 -4.2761188
0.24819617 -0.45765284 -0.13088895 0.1128424 -3.1913505 -0.32006028 0.25694603 0.78306675
1.3154227 -0.3649637 -0.65503323 0.8197494 1.0745794 -1.141582 0.72902036 -0.39198261
-0.31345975 -0.20194569 3.0657508 1.8211558 -0.3031447 0.7849187 -1.0995517 -0.2864966
-1.2321392 -3.274343 0.9771149 -1.7386218 -1.4827824 1.1713428 -1.2515368 -2.7778258
-8.274647 1.9844503 -0.7468271 -1.196704 1.3960142 -1.7160417 1.5201062 1.0343392
0.72188985 -0.48142868 -1.1785952 -0.9179479 -4.545243 0.67601144 2.156385 2.3783956
0.8609303 0.6533462 -3.1351495 -2.2990942 1.904678 -0.055580147 -0.48377746 0.2294905
1.4481301 2.1276484 -2.5832515 -2.5372815 -6.672051 -0.4645443 0.11725806 0.86155725
-0.43745333 -1.8236461 -0.8045502 -1.0137252 0.4079267 -0.009786459 -0.70481175 0.48469424
0.95678145 -1.0410063 1.407719 -1.9529126 -0.83508646 0.24935253 -1.0635445 -3.560162
0.8628526 1.0211082 -6.39858 2.839441 1.2764018 1.562114 -4.736341 1.1083806
0.39833483 1.5347129 -0.045047097 -4.989087 1.7089987 -0.22515324 -1.0768536 0.72348315
-3.6192622 -1.8662354 -1.3123245 3.5938303 -0.034114864 0.5839947 -2.487104 0.86785805
0.38589197 0.8084853 0.49787992 -2.52342 -1.5996052 -1.044488 0.29056954 -2.3490748
00000000: 8910 8ac0 6f3d ccbf 288d 2c40 26aa 7cc0
00000010: b9c3 2140 137c 3fbe d4a2 95be d76a 27bf
00000020: 6a47 4a3e def0 3f40 ddd1 413e b4bb 3a3f
00000030: 4d40 fdbf 0ce7 3e3f 57ca 87bf 0723 09c0
00000040: 762a 543e 1557 5cbf d9f4 e6bd f242 d6c0
00000050: 4acb 313f 062f f23e 87f8 2fc0 aeaf 33bf
00000060: 952f b3bf 0a35 c6bf f7c5 0ec0 f564 153e
00000070: 6418 e7be ca16 543e e537 f13e b29c 0f3f
00000080: 67cd 5bc0 b6ef 20bf b8b7 5d40 e5ca 8f40
00000090: 3e17 43c0 1ec8 ce3e e8ba 2ebf 589b 333f
000000a0: 7b91 f9bf c169 3dc0 0ff2 173f a368 a63e
000000b0: 14a6 5a3f f9a2 aabf 70ed 373f 4773 04c1
000000c0: aa4a 603e f0d4 f6bd 4368 223f 1eef c73f
000000d0: 9ff2 14c0 b59d 8cbf edb7 50be 6ec5 cbbf
000000e0: 98dc b1bf 913d 863f a7bf 01bf f609 c43f
000000f0: 4e38 59c0 d0ea 8c3f ef30 fb3f 8904 abbe
00000100: 044e bbbf a761 8b3e a2a0 89c0 22b7 f6be
00000110: 9d8a 13c0 7c14 633d 7a99 f83e ba76 0b40
00000120: 9eb1 8dc0 5550 34bf 0e05 5140 dc6f bcc0
00000130: 912e 2cbf 6028 febf 7897 78be 5f47 9ec0
00000140: 3c44 47c0 d4a2 643f cb7e 3dbf bebc 183f
00000150: daec 44c0 2d91 ce3e ea0c fb3e f020 493e
00000160: 2f79 4a3f 0bf0 cd3f 047c 0d3e 7d75 193e
00000170: 8d26 52c0 07f8 b6bf f508 e83f 4bcf 47bf
00000180: 67b0 d23f 6d88 443f df3f 12bf 03c2 9a3f
00000190: 4790 e9bf ea13 e8be d987 243c da2a 243e
000001a0: 0a42 d63e 942e 3bc0 7e3e ef3e 817f a5bc
000001b0: 0129 99c0 dfa7 8ebf 395a ee3f 0ef4 7cbe
000001c0: c2b7 4e3e 2c76 b5be 484d f9bf e880 3a3f
000001d0: bb4b 98c0 9862 b23e 31b2 b13f 4100 b5be
000001e0: 3a33 313f bf69 213d e386 8e3f 2457 0ac0
000001f0: 8f13 f03d e484 603e 6340 c4be 7c40 e5bf
00000200: 9b83 6bc0 2f81 34bf 9552 9f3f ef98 b4c0
00000210: 5fe1 52c0 2f5f 9b3e 0ef4 1cc0 abef 7d3e
00000220: e2ed fabe 7ee6 20c0 23c6 b93f cb35 a83f
00000230: bfb5 2e3f 1238 903e 0b16 9a3f f7d5 88c0
00000240: 2327 7e3e 7951 eabe c107 06be eb19 e73d
00000250: 163f 4cc0 f1de a3be 6e8e 833e 1077 483f
00000260: c55f a83f 86dc babe 42b0 27bf 19db 513f
00000270: d18b 893f 5c1f 92bf 14a1 3a3f f2b1 c8be
00000280: cc7d a0be daca 4ebe 4335 4440 a21b e93f
00000290: c835 9bbe 6ff0 483f 1cbe 8cbf afaf 92be
000002a0: bdb6 9dbf d68e 51c0 3424 7a3f 298b debf
000002b0: d0cb bdbf 90ee 953f 5c32 a0bf e6c7 31c0
000002c0: f464 04c1 7802 fe3f 1030 3fbf 992d 99bf
000002d0: 98b0 b23f 41a7 dbbf d792 c23f 3a65 843f
000002e0: c6cd 383f d27d f6be 35dc 96bf a2fe 6abf
000002f0: a172 91c0 160f 2d3f 3602 0a40 a237 1840
00000300: ee65 5c3f b241 273f 4aa6 48c0 5c24 13c0
00000310: 7dcc f33f 02a8 63bd aeb1 f7be 8fff 6a3e
00000320: 545c b93f 642b 0840 fe53 25c0 d262 22c0
00000330: 7181 d5c0 c0d8 edbe fe24 f03d 048f 5c3f
00000340: e2f9 dfbe 3c6d e9bf 00f7 4dbf bfc1 81bf
00000350: c5db d03e 6257 20bc 8b6e 34bf d829 f83e
00000360: a1ef 743f b23f 85bf 2330 b43f 0af9 f9bf
00000370: 3ac8 55bf 4556 7f3e 3a22 88bf b2d9 63c0
00000380: e8e3 5c3f acb3 823f 2bc1 ccc0 67b9 3540
00000390: 2261 a33f 5af3 c73f 1b90 97c0 6adf 8d3f
000003a0: 8bf2 cb3e 7971 c43f 4e83 38bd 9aa6 9fc0
000003b0: 78c0 da3f 928e 66be 57d6 89bf 3136 393f
000003c0: fea1 67c0 cde0 eebf 40fa a7bf 5101 6640
000003d0: 07bc 0bbd ad80 153f b62c 1fc0 f22b 5e3f
000003e0: a293 c53e e5f8 4e3f 1eea fe3e b77f 21c0
000003f0: ddbf ccbf c8b1 85bf 88c5 943e 3e57 16c0

sequential_1/dense_5/BiasAdd/ReadVariableOp f4 [64]
0.09952091 -0.04407331 0.17994475 0.1985277 0.16824467 -0.049750708 0.12726736 0.0017094838
0.11355896 0.21014132 -0.08591371 0.037742347 0.012372377 -0.07536048 -0.020339148 -0.07131311
-0.0166106 -0.023268191 -0.051705543 0.056942012 0.12772264 0.013741711 -0.041399155 -0.17417134
0.15987952 -0.07803418 0.10065814 -0.053329997 -0.11251289 -0.050128583 -0.061124694 0.14286381
-0.15736394 -0.09377795 0.03287661 0.12638398 0.1406525 0.09888455 -0.05378437 0.13383609
0.10589117 0.16688149 -0.06903335 0.14234972 0.13639349 0.06043678 -0.10687223 -0.006102752
-0.031885143 -0.13837911 0.003476513 -0.051929954 0.16893668 -0.05582523 -0.108337924 0.023811812
0.14228004 0.17383486 0.045280557 0.1345739 0.06534166 -0.06013074 -0.04474858 0.049131587
00000000: 9ed1 cb3d 3786 34bd 7043 383e d84a 4b3e
00000010: 5548 2c3e 66c7 4bbd 6052 023e c210 e03a
00000020: 9a91 e83d 492f 573e 87f3 afbd b897 1a3d
00000030: 83b5 4a3c 9856 9abd 499e a6bc 9c0c 92bd
00000040: f412 88bc ef9c bebc 31c9 53bd 073c 693d
00000050: b9c9 023e ea24 613c 2992 29bd f959 32be
00000060: 75b7 233e 62d0 9fbd db25 ce3d 8e70 5abd
00000070: 286d e6bd a153 4dbd e35d 7abd e44a 123e
00000080: 0324 21be a70e c0bd a0a9 063d cd6a 013e
00000090: 3507 103e fc83 ca3d 004d 5cbd 540c 093e
000000a0: 78dd d83d fbe2 2a3e 5b61 8dbd 20c4 113e
000000b0: bcaa 0b3e 8f8c 773d d4df dabd 98f9 c7bb
000000c0: ff99 02bd 41b3 0dbe 36d6 633b 81b4 54bd
000000d0: bdfd 2c3e ffa8 64bd 46e0 ddbd fd10 c33c
000000e0: dcb1 113e c401 323e 1b78 393d becd 093e
000000f0: d9d1 853d a74b 76bd 494a 37bd 343e 493d

sequential_1/dense_6/BiasAdd/ReadVariableOp f4 [32]
0.35068694 0.5828968 0.1849468 0.35408187 0.51421654 0.8802134 0.86154103 0.87004155
0.63038313 0.40311456 0.18759592 0.4686614 0.6121026 0.5677378 0.74661905 0.24296238
0.67069274 0.37550497 0.3837427 -0.03148033 0.76230323 1.1624533 0.64702034 0.7660976
0.94060165 0.59737104 0.65077657 0.733577 0.45588532 0.6825012 0.81921536 0.57316417
00000000: 3d8d b33e ba38 153f b262 3d3e 384a b53e
00000010: b2a3 033f aa55 613f f48d 5c3f 0bbb 5e3f
00000020: ca60 213f 0865 ce3e 2519 403e 63f4 ef3e
00000030: c2b2 1c3f 4457 113f 6d22 3f3f 21cb 783e
00000040: 85b2 2b3f 3042 c03e ec79 c43e 85f1 00bd
00000050: 4e26 433f 45cb 943f 20a3 253f f91e 443f
00000060: 45cb 703f 4fed 183f 4b99 263f b4cb 3b3f
00000070: cd69 e93e 66b8 2e3f 19b8 513f e3ba 123f

sequential_1/dense_7/BiasAdd/ReadVariableOp f4 [26]
0.25759992 -0.06584703 -0.39963502 -0.13237323 -0.06040487 0.111416854 0.32526138 -0.25632283
-0.038206294 -0.14100443 0.2338123 -0.15519324 -0.26185706 0.11426097 0.43553215 -0.21736942
-0.1475891 0.4803115 -0.67235917 -0.24379724 0.21633139 0.06561847 -0.64156514 0.69488007
0.048919577 0.1581526
00000000: 23e4 833e cfda 86bd f69c ccbe d98c 07be
00000010: 196b 77bd 852e e43d a988 a63e bf3c 83be
00000020: 347e 1cbd 7763 10be 7e6c 6f3e faea 1ebe
00000030: 2112 86be a801 ea3d 12fe de3e 1796 5ebe
00000040: 9921 17be 64eb f53e bb1f 2cbf fca5 79be
00000050: fa85 5d3e fa62 863d 9d3d 24bf a9e3 313f
00000060: e55f 483d c1f2 213e

sequential_1/dense_4/MatMul;sequential_1/dense_4/BiasAdd f4 [128]
-1.109508 -1.5624866 -1.4775469 -1.334757 -0.971143 -1.2240865 -1.4659352 -0.80066884
-1.8902259 -1.7112333 -1.2147527 -1.6941861 -1.3410032 -3.2605698 -1.6199361 -1.9410504
-1.5541224 -1.4599073 -1.2479117 -3.320958 -1.2693084 -1.0847366 -1.5888327 -1.3610094
-1.6832576 -1.4689573 -1.0565385 -1.880438 -2.7982495 -1.3787265 -1.7965215 -1.7006304
-1.6501764 -1.3793759 -2.2519927 -0.9390973 -1.9881704 -1.5448375 -1.5891802 -1.3751085
-1.9521778 -1.6369967 -1.5806274 -1.2867347 -1.3099514 -2.5613759 -1.9661454 -1.1201953
-1.7883227 -1.4822179 -1.6449422 -1.5947322 -1.576392 -1.8849007 -1.669685 -1.2699398
-1.1825429 -1.1860007 -1.952524 -1.338903 -2.390879 -2.8257554 -1.5923315 -1.8828399
-1.3763238 -1.2998228 -1.1195364 -2.4654446 -1.4480234 -2.4620495 -1.5833274 -1.5774126
-1.7074075 -1.2755672 -1.7434027 -2.1375954 -1.4154853 -2.393279 -1.1416818 -1.447804
-1.3577149 -1.6988658 -1.8569847 -3.3527443 -1.5611042 -3.0332687 -1.639303 -2.6368911
-1.6714742 -1.4867604 -1.9904577 -1.5933764 -1.1007608 -1.1456766 -1.9663618 -3.2681348
-1.6354547 -1.159896 -1.3719053 -1.7226067 -1.3227799 -1.28396 -2.6458614 -1.4812882
-1.8339027 -1.0244303 -2.9053156 -1.2926915 -1.7182118 -1.3095886 -1.8938558 -0.7927637
-1.6150414 -3.7151399 -1.6004624 -0.9057257 -1.5591743 -2.1234818 -1.9560087 -1.4582857
-3.0973775 -3.3788068 -1.6221478 -1.4789883 -1.2482291 -3.0119271 -1.3526541 -1.6600497
00000000: 5c04 8ebf 90ff c7bf 4220 bdbf 51d9 aabf
00000010: d49c 78bf deae 9cbf c4a3 bbbf a2f8 4cbf
00000020: ecf2 f1bf b109 dbbf 047d 9bbf 17db d8bf
00000030: fea5 abbf 2dad 50c0 115a cfbf 5774 f8bf
00000040: 7ced c6bf 3ede babf 92bb 9fbf 938a 54c0
00000050: b378 a2bf a6d8 8abf df5e cbbf 8e35 aebf
00000060: fc74 d7bf cb06 bcbf a73c 87bf 31b2 f0bf
00000070: 8516 33c0 1c7a b0bf 6bf4 e5bf 42ae d9bf
00000080: fb38 d3bf 648f b0bf a620 10c0 ae68 70bf
00000090: 5e7c febf 3cbd c5bf 426a cbbf 8e03 b0bf
000000a0: f6e0 f9bf 1c89 d1bf 0052 cabf b9b3 a4bf
000000b0: 7dac a7bf 95ed 23c0 a7aa fbbf 8f62 8fbf
000000c0: c2e7 e4bf 51b9 bdbf 778d d2bf 2f20 ccbf
000000d0: 37c7 c9bf 6d44 f1bf 3db8 d5bf 638d a2bf
000000e0: 915d 97bf dfce 97bf 4eec f9bf 2c61 abbf
000000f0: 2904 19c0 2dd9 34c0 85d1 cbbf e600 f1bf
00000100: 612b b0bf 9860 a6bf f84c 8fbf d8c9 1dc0
00000110: d558 b9bf 3892 1dc0 79aa cabf a8e8 c9bf
00000120: 548c dabf c945 a3bf d227 dfbf 5dce 08c0
00000130: 9f2e b5bf 7c2b 19c0 a122 92bf a451 b9bf
00000140: 9ac9 adbf 6f74 d9bf adb1 edbf 5d93 56c0
00000150: 43d2 c7bf 1321 42c0 aed4 d1bf d3c2 28c0
00000160: def2 d5bf 2a4e bebf 51c7 febf c2f3 cbbf
00000170: bbe5 8cbf 88a5 92bf beb1 fbbf 1f29 51c0
00000180: 9456 d1bf 7977 94bf 989a afbf 607e dcbf
00000190: da50 a9bf cd58 a4bf cb55 29c0 da9a bdbf
000001a0: 53bd eabf 8820 83bf b1f0 39c0 ea76 a5bf
000001b0: 5dee dbbf 99a0 a7bf de69 f2bf 90f2 4abf
000001c0: adb9 cebf dac4 6dc0 f4db ccbf a4dd 67bf
000001d0: 0693 c7bf 20e7 07c0 7e5e fabf 1ba9 babf
000001e0: 6f3b 46c0 5f3e 58c0 8aa2 cfbf 7d4f bdbf
000001f0: f9c5 9fbf 6ac3 40c0 c523 adbf 827c d4bf

sequential_1/batch_normalization_1/batchnorm/mul_1;sequential_1/batch_normalization_1/batchnorm/add_1;sequential_1/dense_4/MatMul;sequential_1/dense_4/BiasAdd i1 [128, 42] scale=0.06421635 zero_point=0
0.0 0.0 -0.06421635 2.1191397 2.1191397 0.0 1.9907069 -0.06421635
2.568654 -0.6421635 -1.4769762 0.9632453 -2.6328704 0.0 -1.7980579 -0.19264907
-2.3117888 -0.5779472 0.0 0.38529813 -1.5411925 0.0 0.32108176 0.0
3.9814138 0.7063799 0.32108176 0.06421635 -0.77059627 0.0 0.0 -0.8348126
1.7338415 -0.44951448 3.2108176 -0.2568654 -0.32108176 0.0 0.0 -0.1284327
-1.6696252 0.8348126 0.0 0.0 0.19264907 -3.0181687 -0.38529813 0.0
-0.44951448 0.2568654 0.0 4.6235776 0.38529813 -0.06421635 0.0 0.0
0.19264907 0.1284327 0.1284327 0.38529813 0.0 -0.19264907 -0.2568654 0.0
-0.06421635 0.0 -1.0274616 0.7063799 0.19264907 -0.32108176 -0.1284327 0.0
0.0 -0.1284327 1.1558944 -0.5137308 -0.5137308 -0.9632453 -0.5779472 0.0
0.0 -0.2568654 0.32108176 -2.4402213 0.0 0.0 -0.1284327 -3.275034
0.1284327 0.0 -0.19264907 0.0 0.8348126 2.5044377 -0.9632453 -0.89902896
0.19264907 0.0 0.2568654 -0.1284327 0.06421635 0.2568654 0.0 -0.5137308
-0.77059627 0.0 0.0 0.0 0.2568654 -0.9632453 -0.38529813 -0.38529813
-0.32108176 0.0 0.0 -2.1191397 -0.38529813 -1.4769762 0.1284327 -0.32108176
0.5779472 0.0 0.0 -0.19264907 -0.06421635 2.0549233 0.0 0.0
0.5779472 -1.1558944 1.5411925 0.0 0.9632453 0.0 0.06421635 0.0
-1.7338415 0.1284327 -1.5411925 0.0 -1.284327 0.1284327 -1.4127598 0.89902896
0.0 0.0 -0.9632453 0.0 0.9632453 0.0 8.155477 -0.5137308
0.06421635 -0.1284327 -1.1558944 0.0 0.0 -0.2568654 -1.5411925 0.32108176
2.1191397 -0.1284327 -0.44951448 0.0 0.0 -0.1284327 -4.1098466 0.06421635
0.0 0.0 0.5779472 1.1558944 -0.1284327 0.0 -0.32108176 0.06421635
0.1284327 2.2475724 -0.19264907 -2.7613032 0.44951448 0.0 0.06421635 0.32108176
0.44951448 2.568654 0.0 -1.6054088 0.32108176 0.0 -0.2568654 0.0
-1.2201107 -0.89902896 -0.2568654 -0.77059627 0.32108176 0.0 0.0 -1.3485434
-1.1558944 -2.6970868 -0.6421635 0.1284327 0.5137308 0.0 0.0 0.2568654
0.7063799 1.8622743 0.0 0.0 -0.1284327 0.2568654 -1.0274616 0.0
-0.7063799 0.06421635 -0.32108176 0.9632453 -1.0274616 -2.8255196 0.19264907 0.0
0.5779472 0.32108176 0.7063799 1.7980579 0.0 -1.5411925 -0.1284327 0.0
0.32108176 0.0 0.38529813 0.9632453 -0.5779472 -0.77059627 0.38529813 0.0
0.0 0.8348126 0.7063799 1.2201107 -1.6696252 -0.7063799 0.2568654 0.0
0.0 0.1284327 0.0 -0.06421635 0.0 0.0 2.0549233 -1.1558944
00000000: 0000 ff21 2100 1fff 28f6 e90f d700 e4fd
00000010: dcf7 0006 e800 0500 3e0b 0501 f400 00f3
00000020: 1bf9 32fc fb00 00fe e60d 0000 03d1 fa00
00000030: f904 0048 06ff 0000 0302 0206 00fd fc00
00000040: ff00 f00b 03fb fe00 00fe 12f8 f8f1 f700
00000050: 00fc 05da 0000 fecd 0200 fd00 0d27 f1f2
00000060: 0300 04fe 0104 00f8 f400 0000 04f1 fafa
00000070: fb00 00df fae9 02fb 0900 00fd ff20 0000
00000080: 09ee 1800 0f00 0100 e502 e800 ec02 ea0e
00000090: 0000 f100 0f00 7ff8 01fe ee00 00fc e805
000000a0: 21fe f900 00fe c001 0000 0912 fe00 fb01
000000b0: 0223 fdd5 0700 0105 0728 00e7 0500 fc00
000000c0: edf2 fcf4 0500 00eb eed6 f602 0800 0004
000000d0: 0b1d 0000 fe04 f000 f501 fb0f f0d4 0300
000000e0: 0905 0b1c 00e8 fe00 0500 060f f7f4 0600
000000f0: 000d 0b13 e6f5 0400 0002 00ff 0000 20ee

sequential_1/dense_5/MatMul i1 [64, 128] scale=0.0012524009 zero_point=0
0.037572026 -0.05510564 0.08892047 0.020038415 -0.0050096037 -0.023795618 -0.04132923 -0.012524009
0.017533613 -0.01377641 0.012524009 -0.022543216 0.0062620044 0.022543216 -0.0075144055 0.017533613
0.023795618 0.03631963 0.0075144055 0.023795618 -0.023795618 -0.008766807 0.01377641 0.051348437
-0.015028811 0.0050096037 -0.017533613 0.016281212 -0.032562423 0.01377641 0.016281212 -0.058862843
0.0 0.0 0.05510564 0.06512485 -0.060115244 0.0025048018 -0.022543216 -0.012524009
0.06637725 -0.008766807 -0.015028811 0.017533613 -0.017533613 -0.011271608 0.0012524009 -0.0075144055
0.0037572028 -0.0012524009 0.0075144055 0.050096035 0.07639646 -0.033814825 -0.04132923 0.020038415
0.0025048018 -0.012524009 -0.0062620044 0.021290816 0.05260084 -0.022543216 -0.06512485 0.060115244
0.0 -0.03631963 -0.05260084 -0.0062620044 -0.016281212 0.0050096037 0.030057622 -0.031310022
0.0025048018 -0.023795618 0.0075144055 -0.020038415 0.048843637 0.012524009 0.0012524009 0.0025048018
-0.008766807 -0.01377641 -0.06512485 -0.015028811 0.01377641 0.0050096037 -0.0050096037 -0.008766807
-0.0050096037 -0.0062620044 0.08641566 -0.060115244 -0.020038415 0.011271608 -0.035067227 -0.021290816
-0.010019207 -0.032562423 -0.031310022 0.025048018 0.022543216 0.0037572028 0.0 -0.011271608
0.021290816 -0.08015366 -0.008766807 -0.0075144055 0.016281212 -0.015028811 -0.030057622 -0.0037572028
0.07890126 -0.008766807 -0.016281212 0.0075144055 -0.017533613 -0.015028811 -0.032562423 0.016281212
-0.033814825 -0.016281212 0.09643487 -0.020038415 -0.025048018 0.008766807 0.06637725 -0.012524009
0.018786013 0.0062620044 -0.0075144055 0.058862843 0.0075144055 -0.0050096037 0.011271608 -0.0062620044
0.0 0.015028811 0.012524009 0.025048018 -0.02880522 0.012524009 0.011271608 -0.077648856
0.020038415 -0.058862843 0.02630042 0.02755282 -0.08140606 -0.010019207 -0.0075144055 -0.0062620044
0.011271608 -0.008766807 0.008766807 -0.0025048018 -0.0025048018 -0.04132923 -0.0025048018 0.0
-0.025048018 -0.047591235 -0.018786013 0.05260084 0.012524009 -0.0050096037 0.0050096037 0.0062620044
0.012524009 -0.045086432 0.008766807 0.037572026 0.0037572028 0.011271608 0.0062620044 -0.010019207
-0.09142527 -0.0025048018 -0.05260084 -0.06888205 -0.0012524009 0.022543216 -0.0012524009 -0.012524009
0.02880522 -0.0062620044 0.0012524009 0.022543216 -0.04132923 0.0050096037 0.033814825 0.0
0.018786013 -0.017533613 -0.022543216 0.0050096037 0.02880522 0.018786013 0.038824428 -0.015028811
-0.01377641 -0.012524009 0.0037572028 0.0012524009 -0.060115244 -0.0025048018 -0.010019207 0.032562423
0.023795618 0.012524009 0.0062620044 -0.062620044 -0.016281212 0.020038415 -0.061367646 -0.010019207
0.0025048018 0.017533613 -0.008766807 0.010019207 -0.0050096037 0.031310022 -0.018786013 -0.062620044
0.0075144055 -0.015028811 0.011271608 0.025048018 0.07639646 -0.017533613 0.017533613 0.0062620044
-0.011271608 0.0025048018 -0.0012524009 0.016281212 -0.05260084 -0.050096035 -0.0075144055 -0.050096035
0.02630042 -0.07138685 -0.0050096037 0.021290816 -0.0050096037 0.021290816 0.0062620044 -0.0037572028
0.0025048018 -0.05761044 -0.012524009 0.008766807 -0.035067227 -0.018786013 -0.097687274 0.0025048018
00000000: 1ed4 4710 fced dff6 0ef5 0aee 0512 fa0e
00000010: 131d 0613 edf9 0b29 f404 f20d e60b 0dd1
00000020: 0000 2c34 d002 eef6 35f9 f40e f2f7 01fa
00000030: 03ff 0628 3de5 df10 02f6 fb11 2aee cc30
00000040: 00e3 d6fb f304 18e7 02ed 06f0 270a 0102
00000050: f9f5 ccf4 0b04 fcf9 fcfb 45d0 f009 e4ef
00000060: f8e6 e714 1203 00f7 11c0 f9fa 0df4 e8fd
00000070: 3ff9 f306 f2f4 e60d e5f3 4df0 ec07 35f6
00000080: 0f05 fa2f 06fc 09fb 000c 0a14 e90a 09c2
00000090: 10d1 1516 bff8 fafb 09f9 07fe fedf fe00
000000a0: ecda f12a 0afc 0405 0adc 071e 0309 05f8
000000b0: b7fe d6c9 ff12 fff6 17fb 0112 df04 1b00
000000c0: 0ff2 ee04 170f 1ff4 f5f6 0301 d0fe f81a
000000d0: 130a 05ce f310 cff8 020e f908 fc19 f1ce
000000e0: 06f4 0914 3df2 0e05 f702 ff0d d6d8 fad8
000000f0: 15c7 fc11 fc11 05fd 02d2 f607 e4f1 b202

sequential_1/dense_6/MatMul i1 [32, 64] scale=0.0022577392 zero_point=0
-0.03386609 -0.018061914 -0.038381565 -0.029350609 -0.020319652 0.1264334 -0.088051826 0.047412522
-0.047412522 -0.029350609 0.17384592 0.02709287 -0.009030957 0.051928002 0.045154784 -0.036123827
-0.009030957 0.036123827 0.03386609 0.011288696 -0.09030957 0.051928002 -0.0045154784 0.0022577392
-0.040639304 0.20093879 -0.03386609 -0.058701217 0.020319652 0.11062922 -0.02709287 -0.02709287
0.020319652 -0.05644348 0.08579409 -0.103856005 -0.07902087 -0.09030957 0.013546435 -0.07902087
-0.097082786 -0.024835132 0.09934053 -0.06773218 -0.045154784 0.088051826 0.20319653 0.045154784
-0.06998991 -0.0045154784 -0.020319652 -0.018061914 -0.020319652 0.036123827 0.0022577392 0.074505396
-0.097082786 -0.011288696 -0.024835132 -0.049670264 -0.038381565 0.097082786 0.11288696 -0.05644348
-0.047412522 0.049670264 -0.009030957 0.0067732176 0.0045154784 0.05418574 -0.015804175 -0.03386609
-0.03160835 -0.0045154784 0.094825044 -0.042897046 0.013546435 -0.02709287 0.0045154784 -0.10159826
-0.05644348 -0.011288696 0.036123827 -0.036123827 -0.009030957 -0.009030957 0.022577392 0.011288696
0.0 0.06998991 -0.040639304 0.020319652 -0.07902087 0.05418574 0.03386609 0.0022577392
0.029350609 -0.02709287 0.12417565 -0.03386609 -0.018061914 -0.015804175 0.015804175 -0.018061914
-0.018061914 -0.011288696 0.040639304 -0.0022577392 -0.013546435 0.022577392 0.072247654 0.011288696
-0.05418574 0.020319652 -0.018061914 0.013546435 0.029350609 -0.038381565 0.049670264 0.018061914
-0.015804175 0.051928002 -0.015804175 0.0067732176 -0.047412522 0.049670264 0.09030957 -0.011288696
0.058701217 -0.045154784 -0.029350609 -0.045154784 -0.015804175 0.024835132 -0.009030957 0.013546435
0.038381565 -0.029350609 -0.0045154784 0.015804175 -0.038381565 0.045154784 0.024835132 0.088051826
0.08127861 0.013546435 -0.0632167 0.018061914 -0.011288696 -0.011288696 -0.06095896 -0.0022577392
-0.036123827 0.013546435 0.029350609 0.0067732176 0.06998991 0.018061914 -0.015804175 -0.26189774
-0.022577392 -0.022577392 -0.072247654 -0.0045154784 -0.020319652 -0.011288696 -0.05418574 -0.018061914
-0.015804175 -0.27995965 0.024835132 -0.015804175 -0.24157809 -0.06773218 0.029350609 0.07902087
0.040639304 -0.020319652 0.038381565 -0.0067732176 -0.28673288 0.0045154784 -0.08127861 -0.045154784
-0.024835132 -0.2709287 0.05418574 -0.2709287 -0.042897046 0.045154784 0.011288696 -0.049670264
0.020319652 -0.0067732176 -0.024835132 -0.024835132 -0.02709287 0.0045154784 -0.24157809 -0.0045154784
-0.0067732176 -0.024835132 0.03386609 -0.03160835 -0.03386609 -0.06095896 0.024835132 0.024835132
0.0045154784 0.029350609 0.0022577392 -0.013546435 -0.24157809 -0.0022577392 -0.029350609 0.065474436
-0.020319652 0.05644348 0.013546435 0.06998991 -0.0067732176 -0.0045154784 0.011288696 -0.013546435
-0.0045154784 0.013546435 0.040639304 -0.22803167 -0.24383584 -0.23932035 -0.0022577392 -0.2528668
-0.2302894 -0.009030957 -0.020319652 -0.23480487 -0.020319652 0.029350609 0.06998991 0.013546435
0.018061914 0.0067732176 0.011288696 0.058701217 -0.022577392 -0.06773218 -0.011288696 0.0067732176
-0.23932035 -0.024835132 0.045154784 -0.042897046 -0.045154784 0.0632167 0.013546435 -0.058701217
00000000: f1f8 eff3 f738 d915 ebf3 4d0c fc17 14f0
00000010: fc10 0f05 d817 fe01 ee59 f1e6 0931 f4f4
00000020: 09e7 26d2 ddd8 06dd d5f5 2ce2 ec27 5a14
00000030: e1fe f7f8 f710 0121 d5fb f5ea ef2b 32e7
00000040: eb16 fc03 0218 f9f1 f2fe 2aed 06f4 02d3
00000050: e7fb 10f0 fcfc 0a05 001f ee09 dd18 0f01
00000060: 0df4 37f1 f8f9 07f8 f8fb 12ff fa0a 2005
00000070: e809 f806 0def 1608 f917 f903 eb16 28fb
00000080: 1aec f3ec f90b fc06 11f3 fe07 ef14 0b27
00000090: 2406 e408 fbfb e5ff f006 0d03 1f08 f98c
000000a0: f6f6 e0fe f7fb e8f8 f984 0bf9 95e2 0d23
000000b0: 12f7 11fd 8102 dcec f588 1888 ed14 05ea
000000c0: 09fd f5f5 f402 95fe fdf5 0ff2 f1e5 0b0b
000000d0: 020d 01fa 95ff f31d f719 061f fdfe 05fa
000000e0: fe06 129b 9496 ff90 9afc f798 f70d 1f06
000000f0: 0803 051a f6e2 fb03 96f5 14ed ec1c 06e6
